data.pth (torch, 5271 bytes, 6 tensors)

l1.weight f4 [8, 59]
0.6110538 0.2517035 -0.36122337 0.21178575 0.32513443 0.15551023 0.5491329 -0.2201908
-0.16133098 -0.3842031 -0.20212106 0.44660893 -0.15556832 -0.62484664 -0.33425376 -0.14539294
-0.05765998 -0.028586641 0.4080609 0.60879654 -0.24799874 0.4257719 0.43163764 0.4049035
0.49459243 0.13572739 -0.14128877 0.4340844 -0.41327938 -0.22928864 -0.3076577 0.19762866
0.41734663 0.13779 -0.36660287 0.40344554 -0.43263718 -0.016141528 -0.11736971 -0.21363042
-0.41970333 -0.32367206 -0.13091934 0.40995812 -0.3291738 -0.15565005 -0.07275475 -0.43051952
-0.104433104 0.9141349 0.51892847 0.092578776 -0.46474338 -0.10331464 0.011239734 -0.1327644
-0.33464113 0.26763245 0.35536423 -0.36178032 -0.4782913 -0.11970961 0.6631822 0.43735716
0.34918952 -0.76392555 -0.07752918 -0.30907434 -0.43477973 -0.1296016 0.548942 0.33020392
-0.082791544 0.42029276 0.4508311 -0.3858447 0.5381522 0.6010158 -0.75773036 -0.1624218
0.66630524 -0.21594727 0.7344221 0.5976868 0.59200686 0.3010996 0.5500805 -0.41169298
-0.50861275 -0.3102257 -0.041521054 -0.44018742 0.30360553 0.23647526 -0.08065678 -0.21241811
0.23523086 0.5574819 -0.19338848 -0.540288 -0.3034992 -0.23245311 -0.32309276 -0.17612714
0.3715011 -0.5567794 0.2723384 0.07407785 -0.76742834 -0.18627258 0.31056717 -0.50859165
0.556667 0.72022223 -0.13071656 -0.22165361 0.0034909837 0.5108301 0.81224614 0.022575958
0.09507029 -0.107508354 0.15787387 0.13301025 -0.68806773 0.1497505 -0.08783342 -0.1378189
-0.096508466 0.29668605 -0.19001648 -0.33174846 -0.22275028 -0.40939486 -0.17192502 0.014790915
0.36535144 -0.68797266 -0.0848995 0.45605865 0.68017703 0.6402966 0.6275361 0.4837193
0.036792144 0.19078536 -0.32922682 -0.3042872 -0.08353878 -0.25016126 -0.473213 -0.14393173
-0.24321508 0.6019245 0.17072855 -0.2336803 -0.16346942 -0.18039432 -0.13234842 0.061124757
0.11888196 -0.39049736 -0.25671098 -0.3279305 -0.079095 -0.3745823 -0.20338961 1.3530155
0.61480343 0.047361407 -0.27519745 -0.07853168 -0.58719784 -0.11789388 0.1367248 0.17571206
-0.14789471 0.54106796 0.6109825 0.6032926 0.20546001 0.29719675 0.49384278 -0.14111601
0.37108153 0.57461995 0.77943546 0.5171445 0.44762734 -0.24960062 -0.003326438 -0.3705336
0.07314528 0.36254764 -0.19085616 0.3594601 -0.17374639 -0.30388767 0.7113831 0.5899967
0.70240664 0.7212069 0.15829623 0.014199522 0.44901922 -0.26981217 0.5401482 -0.13805784
0.33493853 -0.17143399 0.18638143 -0.29527476 0.23837173 0.41869482 0.6026664 -0.14819044
-0.2330498 0.8836054 0.30836838 0.2605323 -0.17141257 -0.41449267 -0.24956428 0.423544
0.07816745 0.4521513 1.0125109 0.5241354 0.015862666 -0.5477546 -0.101075195 0.1882446
-0.38867763 0.26161212 0.28685066 0.17367569 -0.22796607 0.3984408 -0.03213984 0.42235586
-0.4085242 0.31161398 0.40351638 0.124684945 -0.34892023 -0.28613412 -0.18860456 -0.002588775
0.6647679 0.56845045 0.74936557 0.30530882 0.3690257 0.48934612 0.02646275 0.41509277
00000000: 066e 1c3f 48df 803e 45f2 b8be 5dde 583e
00000010: 0578 a63e 133e 1f3e f993 0c3f b279 61be
00000020: f333 25be 45b6 c4be d3f8 4ebe eda9 e43e
00000030: 4d4d 1fbe f3f5 1fbf 4f23 abbe e3e1 14be
00000040: df2c 6cbd 882e eabc 5ced d03e 17da 1b3f
00000050: 62f3 7dbe c6fe d93e 9cff dc3e 834f cf3e
00000060: 383b fd3e 1ffc 0a3e 01ae 10be 4f40 de3e
00000070: 5b99 d3be a4ca 6abe 4f85 9dbe 2b5f 4a3e
00000080: 75ae d53e d218 0d3e 5fb3 bbbe 6a90 ce3e
00000090: 9f82 ddbe 3d3b 84bc 885f f0bd efc1 5abe
000000a0: 5be3 d6be 58b8 a5be b80f 06be 08e6 d13e
000000b0: 7889 a8be ba62 1fbe 7100 95bd 0e6d dcbe
000000c0: 06e1 d5bd bf04 6a3f 7fd8 043f f199 bd3d
000000d0: d8f2 edbe a096 d3bd dc26 383c 64f3 07be
000000e0: 1556 abbe 1f07 893e 4df2 b53e 453b b9be
000000f0: 99e2 f4be 502a f5bd 4fc6 293f 47ed df3e
00000100: f8c8 b23e a090 43bf 9ec7 9ebd fe3e 9ebe
00000110: 739b debe 48b6 04be 7787 0c3f 7d10 a93e
00000120: 9d8e a9bd 9d30 d73e 55d3 e63e 708d c5be
00000130: 58c4 093f 2cdc 193f 9efa 41bf e651 26be
00000140: fb92 2a3f 4821 5dbe 1603 3c3f 0102 193f
00000150: c38d 173f ba29 9a3e 13d2 0c3f 6cc9 d2be
00000160: 7234 02bf e7d5 9ebe fb11 2abd 3f60 e1be
00000170: 2f72 9b3e 9226 723e 622f a5bd 2284 59be
00000180: 5ce0 703e 22b7 0e3f a107 46be 5050 0abf
00000190: 3f64 9bbe 3008 6ebe 6a6c a5be ac5a 34be
000001a0: 6435 be3e 1889 0ebf f06f 8b3e 21b6 973d
000001b0: 2f76 44bf 3dbe 3ebe a902 9f3e 1033 02bf
000001c0: ba81 0e3f 7c60 383f 90da 05be 2af9 62be
000001d0: fdc8 643b c3c5 023f 5def 4f3f 37f1 b83c
000001e0: 36b4 c23d 572d dcbd b0a9 213e d733 083e
000001f0: 3525 30bf 3258 193e 02e2 b3bd 6620 0dbe
00000200: 3ba6 c5bd 3ce7 973e ae93 42be efda a9be
00000210: a618 64be 349c d1be 1d0d 30be 9855 723c
00000220: 580f bb3e fa1e 30bf cadf adbd 8580 e93e
00000230: 1520 2e3f 7aea 233f 35a6 203f 0eaa f73e
00000240: 5cb3 163d 3d5d 433e 6b90 a8be 88cb 9bbe
00000250: 6116 abbd 2315 80be f948 f2be d762 13be
00000260: 600d 79be b917 1a3f 77d3 2e3e e349 6fbe
00000270: 8764 27be 4ab9 38be 5886 07be f45d 7a3d
00000280: 6378 f33d 45ef c7be 9f6f 83be 82e6 a7be
00000290: 8ffc a1bd 40c9 bfbe 5e45 50be 9d2f ad3f
000002a0: c263 1d3f 09fe 413d aee6 8cbe 38d5 a0bd
000002b0: 9952 16bf 5972 f1bd 9601 0c3e dded 333e
000002c0: b671 17be 6e83 0a3f 5969 1c3f 6271 1a3f
000002d0: 1c64 523e 2c2a 983e f6d8 fc3e b780 10be
000002e0: 66fe bd3e 4b1a 133f 1589 473f 9563 043f
000002f0: 692f e53e 4e97 7fbe 5e00 5abb 94b6 bdbe
00000300: 31cd 953d d89f b93e cc6f 43be 270b b83e
00000310: 93ea 31be 2a97 9bbe 341d 363f 060a 173f
00000320: ecd0 333f 04a1 383f 6818 223e 1da5 683c
00000330: d9e5 e53e d224 8abe 2747 0a3f 095f 0dbe
00000340: 107d ab3e 648c 2fbe c6da 3e3e 412e 97be
00000350: b817 743e 2b5f d63e 5848 1a3f 3cbf 17be
00000360: 9ba4 6ebe f733 623f 76e2 9d3e 7d64 853e
00000370: c786 2fbe 6238 d4be c78d 7fbe c2da d83e
00000380: 4216 a03d 6080 e73e f599 813f bd2d 063f
00000390: 6cf2 813c a539 0cbf 8300 cfbd 31c3 403e
000003a0: c100 c7be 06f2 853e 17de 923e 0ad8 313e
000003b0: f06f 69be 6f00 cc3e 11a5 03bd 073f d83e
000003c0: 152a d1be de8b 9f3e b399 ce3e d25a ff3d
000003d0: aca5 b2be 2c80 92be 8e21 41be 70a8 29bb
000003e0: 3b2e 2a3f f885 113f 6cd6 3f3f 7051 9c3e
000003f0: f0f0 bc3e 938b fa3e 69c8 d83c 0a87 d43e

l1.bias f4 [8]
1.1511805 0.76401234 0.68795085 0.6788052 0.85328996 0.31977966 0.6364895 0.97868717
00000000: e259 933f 5096 433f 8c1d 303f 2dc6 2d3f
00000010: 3671 5a3f 29ba a33e faf0 223f 3e8b 7a3f

l2.weight f4 [8, 8]
-0.0626728 0.7186897 -0.4788195 -0.40215504 0.47457162 0.13961259 0.29979783 -0.5059887
0.80307466 0.97782785 -0.02531596 -0.027146906 1.047765 -0.0026422145 1.0298572 -0.7833615
0.22480057 -1.0095621 -0.16604066 0.80039996 0.4601223 0.60360086 -1.2954558 0.98749465
1.2862397 0.31800348 1.5167865 1.0663736 -1.1929233 -0.8227167 0.5786065 1.3351269
-0.09669597 1.0867434 -0.43328083 1.0681026 0.6418539 1.0421745 0.46821845 -0.48023805
-1.1372916 0.34696257 0.046461236 -0.9197574 0.93464595 -0.17311965 0.06951058 0.8898591
1.2506404 -0.7037032 -0.6812503 -0.23590693 0.644586 -0.6358011 -1.0031418 0.15234448
-0.3140546 0.13471204 0.15155552 0.30947512 -0.30769762 -0.21929853 -0.11295836 -0.3156309
00000000: 995a 80bd 0cfc 373f d427 f5be 44e7 cdbe
00000010: 0dfb f23e 9af6 0e3e 1a7f 993e 7a88 01bf
00000020: 4d96 4d3f ed52 7a3f 6b63 cfbc 3063 debc
00000030: 2a1d 863f 0129 2dbb 5cd2 833f 618a 48bf
00000040: 1f32 663e 5539 81bf 9006 2abe 03e7 4c3f
00000050: 2695 eb3e 9685 1a3f 7fd1 a5bf 73cc 7c3f
00000060: 81a3 a43f 5ad1 a23e 0f26 c23f ee7e 883f
00000070: b6b1 98bf 909d 52bf 8e1f 143f 70e5 aa3f
00000080: 8908 c6bd 681a 8b3f fcd6 ddbe 96b7 883f
00000090: 8a50 243f f965 853f 54ba ef3e c3e1 f5be
000000a0: c592 91bf 14a5 b13e 234e 3e3d 3975 6bbf
000000b0: f544 6f3f 4746 31be 905b 8e3d cecd 633f
000000c0: fc14 a03f e525 34bf 6b66 2ebf 9691 71be
000000d0: 9703 253f dcc3 22bf f366 80bf 3100 1c3e
000000e0: c4cb a0be f4f1 093e 5f31 1b3e 8673 9e3e
000000f0: 8b8a 9dbe cb8f 60be b656 e7bd 609a a1be

l2.bias f4 [8]
-0.2467432 0.5330478 0.72497916 0.47855115 0.04088097 0.65228504 0.872975 -0.19125152
00000000: 40aa 7cbe d275 083f 3c98 393f a804 f53e
00000010: ce72 273d 27fc 263f 4a7b 5f3f 70d7 43be

l3.weight f4 [8, 8]
0.38876295 0.50921494 -1.206807 -0.7802744 0.62390715 -1.2220312 -0.92717147 0.17403002
0.5646332 -0.13557555 -1.0145917 -0.7777309 0.27897006 0.7388182 -1.2466211 0.3225472
-1.092727 -0.14136049 0.5081635 -1.185249 0.49858263 -0.97913843 -0.93616295 -0.11271052
-0.5055515 -0.0447222 0.34495565 -0.058463894 -1.068739 -1.3386611 0.8831609 -0.308346
-0.87024343 0.4007439 -0.8935829 0.6588454 -0.09927596 -0.5928876 -1.6099111 -0.20594034
-1.2157727 -0.4317506 0.050309718 -0.9195899 -1.1366056 1.062303 0.30247003 0.21126267
-0.45710227 -1.1435184 0.74330395 0.25077933 -0.24209458 0.06623881 -1.8192428 0.101156205
-0.63590926 -0.7493917 0.16188136 0.94046235 -1.7137449 -0.84377426 -0.67421985 -0.25865057
00000000: f00b c73e e95b 023f a778 9abf 10c0 47bf
00000010: 61b8 1f3f 856b 9cbf 1c5b 6dbf ed34 323e
00000020: cd8b 103f 51d4 0abe 24de 81bf 5f19 47bf
00000030: 2ad5 8e3e 3123 3d3f 4891 9fbf e824 a53e
00000040: 7ade 8bbf cec0 10be 0117 023f 3db6 97bf
00000050: 3946 ff3e d1a8 7abf 60a8 6fbf c6d4 e6bd
00000060: d36b 01bf a02e 37bd 079e b03e d677 6fbd
00000070: 71cc 88bf 3f59 abbf d516 623f 87df 9dbe
00000080: 46c8 5ebf 4e2e cd3e d9c1 64bf 18aa 283f
00000090: 3251 cbbd 7bc7 17bf 9111 cebf 06e2 52be
000000a0: 719e 9bbf 6a0e ddbe 9011 4e3d 3e6a 6bbf
000000b0: 4b7c 91bf 8bf9 873f 5add 9a3e 3e55 583e
000000c0: 4f09 eabe d05e 92bf 2b49 3e3f 2666 803e
000000d0: a4e7 77be 37a8 873d f3dc e8bf fc2a cf3d
000000e0: f3ca 22bf 22d8 3fbf 3ac4 253e 24c2 703f
000000f0: fe5b dbbf 9701 58bf ac99 2cbf d96d 84be

l3.bias f4 [8]
-0.16037469 -0.10510081 0.28724796 0.47655147 -0.040349822 -0.096388996 0.20911653 -0.093420096
00000000: 4339 24be 183f d7bd 2a12 933e 8efe f33e
00000010: db45 25bd 9867 c5bd a522 563e 0953 bfbd
